Model: "sequential"
_________________________________________________________________
Layer (type)                 Output Shape              Param #   
=================================================================
conv2d (Conv2D)              (None, 127, 127, 8)       224       
_________________________________________________________________
max_pooling2d (MaxPooling2D) (None, 63, 63, 8)         0         
_________________________________________________________________
conv2d_1 (Conv2D)            (None, 31, 31, 16)        1168      
_________________________________________________________________
max_pooling2d_1 (MaxPooling2 (None, 15, 15, 16)        0         
_________________________________________________________________
conv2d_2 (Conv2D)            (None, 13, 13, 32)        4640      
_________________________________________________________________
max_pooling2d_2 (MaxPooling2 (None, 6, 6, 32)          0         
_________________________________________________________________
conv2d_3 (Conv2D)            (None, 4, 4, 128)         36992     
_________________________________________________________________
max_pooling2d_3 (MaxPooling2 (None, 2, 2, 128)         0         
_________________________________________________________________
dropout (Dropout)            (None, 2, 2, 128)         0         
_________________________________________________________________
flatten (Flatten)            (None, 512)               0         
_________________________________________________________________
dense (Dense)                (None, 512)               262656    
_________________________________________________________________
dropout_1 (Dropout)          (None, 512)               0         
_________________________________________________________________
dense_1 (Dense)              (None, 2)                 1026      
=================================================================
Total params: 306,706
Trainable params: 306,706
Non-trainable params: 0
_________________________________________________________________
Epoch 1/150
14/14 [==============================] - 12s 369ms/step - loss: 0.6933 - accuracy: 0.5080 - val_loss: 0.6850 - val_accuracy: 0.6627
Epoch 2/150
14/14 [==============================] - 5s 365ms/step - loss: 0.6920 - accuracy: 0.5457 - val_loss: 0.6527 - val_accuracy: 0.5904
…
